DeformPTM.pth (torch, 929974 bytes, 25 tensors)

enc_rnn.weight_ih_l0 f4 [512, 3]
000000 b3 0a 13 bf bc bd 97 3e 69 98 82 be c4 b5 9e be
       -0.574382 0.29636943 -0.25506905 -0.3099805
000010 77 30 23 3e e5 0d 2a 3d 7c a9 83 bf 8c 58 af 3e
       0.15936457 0.041517157 -1.0286098 0.34247243
000020 c9 49 40 3d 38 65 21 3e 59 0f 22 bf 30 f3 bb 3e
       0.046945367 0.15761268 -0.6330467 0.36708975
000030 12 fa bb be 32 92 3c 3c 3a c0 0c 3d 20 ed 6e bf
       -0.36714226 0.011509465 0.03436301 -0.93330574
000040 3d b1 8f 3e fd 07 5f bc 55 bc a8 bf 3e 94 42 be
       0.2806491 -0.013612744 -1.3182474 -0.19001862
000050 94 7a 36 3e 96 ad 76 be 04 4e 30 3f ca f0 92 bd
       0.17820197 -0.24089655 0.6886904 -0.07174833
000060 dd d4 a4 3d f1 46 e6 3d e6 7c 96 3d ce 9b 5f bf
       0.08048413 0.11244 0.07348041 -0.87347114
000070 ac 26 6d 3e aa 90 83 bd f5 a5 8d 3f 5a 40 0a 3e
       0.23159283 -0.06424077 1.1066271 0.1350111
000080 58 51 c4 bd e6 bc 37 3f 12 67 39 be d8 52 0e 3d
       -0.095858276 0.7177261 -0.18105724 0.034746975
000090 16 bd 18 bf e3 dd 63 bd 4e a8 7b bf a4 48 e0 be
       -0.5966352 -0.05563153 -0.9830369 -0.4380542
0000a0 84 d3 0f 3f 23 74 05 be 79 a0 a5 3f 87 f4 77 3d
       0.5618212 -0.13032584 1.2939597 0.060535934
0000b0 89 6b d0 bc 03 49 79 bf 43 d2 29 be 6c a1 21 3d
       -0.025441902 -0.9737703 -0.16584115 0.039460585
0000c0 7f 46 da 3e 4a 73 af bc 28 15 f4 bc 93 a6 aa 3f
       0.4263191 -0.021417279 -0.029795244 1.3332084
0000d0 45 34 e3 3d 78 82 05 3e 16 84 e8 bd 37 8b 9e be
       0.11093954 0.13038051 -0.113533184 -0.30965587
0000e0 2b b0 1d bf 5c e4 55 be d4 8f a6 3c 70 e6 3c 3e
       -0.61596936 -0.20887893 0.020332254 0.1844728
0000f0 86 e1 83 3f 5f 17 22 be 3a 19 a1 ba ac 0f 9f bf
       1.0303199 -0.15829228 -0.0012290843 -1.2426658
000100 23 cb a0 3f 3e 25 3a bf 92 69 01 bf 9f ac f3 3e
       1.2561992 -0.7271308 -0.5055171 0.47592637
000110 9f cb 19 bd f8 3b 11 40 62 86 31 3e 49 e4 a6 3d
       -0.037547704 2.2692852 0.17336419 0.08149011
000120 1f ac 57 3f 39 72 8d 3d 2d 03 af bc 74 8a 8c 3f
       0.8424701 0.06906552 -0.021363819 1.0979753
000130 cc 0b 8a 3e 2f 9f 8d bc 9c cc f6 3e 36 a5 19 3f
       0.26962125 -0.017287819 0.4820298 0.60017717
000140 02 ed 12 bf 60 2b 4f bf 20 0c 16 bf 1f c5 6b be
       -0.57392895 -0.8092556 -0.5861225 -0.23024414
000150 c5 b8 85 bb df 34 0d bf 67 31 5b 3f 50 05 ab 3f
       -0.004080864 -0.551588 0.85622257 1.3360996
000160 7e 14 20 3e 98 75 b8 bd cb 42 1b be 2b af ce 3b
       0.15632817 -0.09006804 -0.15162198 0.0063075027
000170 27 f0 07 3f 9c a9 8b 3e 74 c3 3e 3e 88 12 fb be
       0.5310082 0.2727784 0.18629247 -0.49037576
000180 b5 20 f1 3e b6 7b 9b 3d 93 eb b3 bc da 76 93 bf
       0.47095266 0.07591955 -0.021962916 -1.1520646
000190 8c 79 48 bf 1c 1f c4 be 6e 9c 0f 3f ff 3b 20 3f
       -0.78310466 -0.38304985 0.5609807 0.62591547
0001a0 73 43 ca be 24 12 b3 3f 3d c8 e4 3e 08 ed a0 3d
       -0.39504585 1.3989911 0.4468402 0.0785771
0001b0 8d 22 00 bf 83 21 fb bd 6d 13 a1 3e 1f 3a a7 3e
       -0.5005272 -0.12262251 0.31460133 0.3266153
0001c0 e5 0c f4 bd 59 18 c9 40 fb 4d a8 bf 3f a1 17 39
       -0.11916522 6.284222 -1.3148798 0.00014460551
0001d0 2d 42 76 3d 1d 90 3a bf 39 2d 0b 3e ea f1 45 be
       0.060121704 -0.7287615 0.1359147 -0.19330564
0001e0 48 11 95 bd 44 ce 2e be 23 fe 86 3c c1 54 84 3f
       -0.07278687 -0.17070872 0.016478604 1.0338365
0001f0 6a 33 a2 3e 71 b2 80 3d bb 1c 4e bf 94 32 e9 ba
       0.3167985 0.06284035 -0.8051259 -0.0017791563
000200 a9 31 93 bc e0 4d 10 3f 72 a8 c3 bc 5e 01 97 3e
       -0.017968016 0.5636883 -0.023884032 0.2949323
000210 ae a3 85 bf c6 32 1f 3e 59 fc 38 be a8 e7 35 bf
       -1.0440576 0.15546712 -0.18065013 -0.71056604
000220 77 05 dc 3e 4a da b4 bc 37 8f 61 3f 28 b2 bc bd
       0.4297292 -0.022076745 0.88109154 -0.09213668
000230 8a db f2 3d 94 ea f3 be bb dc 0c bf a0 49 81 3e
       0.1185828 -0.47639906 -0.5502431 0.25251484
000240 af 83 ae 3e ba 74 3e 3e fb ba e4 3d 59 7c 18 bf
       0.34084842 0.18599215 0.11168476 -0.5956474
000250 bb 91 1f 3f 3c 38 f7 3d 3c 74 8c be 68 1f ce 3e
       0.6233174 0.12071273 -0.2743243 0.40258336
000260 aa 04 8c 3f 5a 80 e1 be 47 65 e8 be a3 2b 27 be
       1.0938923 -0.44043237 -0.45389768 -0.1632524
000270 1e 5a e8 bd fe 3f 78 3e 01 e3 e3 bc 32 02 83 3f
       -0.113453135 0.24243161 -0.027818205 1.0235045
000280 87 ce 79 bf a1 16 ac 3c c3 38 9e 3e bd bf 56 3e
       -0.9758076 0.021006884 0.3090268 0.2097158
000290 4f 6d 84 3d 45 3a 2a 3f 80 9a 88 be c1 a5 ed 3c
       0.064661615 0.6649516 -0.26680374 0.029009702
0002a0 1c 24 82 bf 7c b2 d3 be 2d 7a 41 3c ce 15 b3 3f
       -1.016727 -0.4134711 0.011808914 1.3991029
0002b0 4a 7f 6d 3e 8c 46 f2 bd 01 fa 25 3f 65 bd b9 3d
       0.23193088 -0.11829862 0.648346 0.09069327
0002c0 22 10 ce bd bd a1 16 3f 84 62 11 bf d7 a9 ca bd
       -0.10061671 0.58840543 -0.5679095 -0.09895676
0002d0 93 0e 9f be e2 b4 55 be 43 fe 13 bf bc 44 8a bf
       -0.31065807 -0.20869783 -0.5780985 -1.0802226
0002e0 5a 6f 9d 3e b9 c3 8e 3e 4f e2 93 bf 21 6e fd be
       0.30749017 0.278837 -1.1553439 -0.49498084
0002f0 1d d0 ce 3d 3a 45 eb be 44 bc fa be d4 2d a1 be
       0.10098288 -0.45951253 -0.4897176 -0.31480277
000300 70 db fe be bd 6b 04 3f f5 a3 eb be f8 02 ac be
       -0.49776793 0.51726896 -0.46023527 -0.33596015
000310 11 98 ce be 40 a3 cb 3f f0 dc d5 3e 41 f4 9c 3e
       -0.40350392 1.5909195 0.41770124 0.306551
000320 a2 c6 12 3e c3 d0 bf 3e 05 c7 68 bd 8f d5 11 be
       0.14333585 0.3746396 -0.056830425 -0.14241622
000330 91 98 28 bf 55 fc 40 be 0d 32 14 3e c3 3d 2e bf
       -0.658578 -0.18846257 0.14472218 -0.6806299
000340 45 05 ac 3e e7 46 06 be 0e 67 f0 be 84 f8 10 bf
       0.3359777 -0.13112985 -0.46953624 -0.56629205
000350 65 a1 b8 3c a7 4a d9 3f 82 30 ba bd 75 b6 88 bc
       0.022537896 1.6975907 -0.090912834 -0.016688565
000360 64 ee 67 bf 56 6e 3c be f1 9c c8 bc a7 c3 f6 3e
       -0.9059813 -0.18401465 -0.024488898 0.48196146
000370 05 a5 b5 3e ed 13 75 3f 46 6e 54 bf a2 0c 8d bd
       0.35477462 0.9573353 -0.82980764 -0.06887175
000380 1f b9 75 bd c1 b2 c2 3d ad 0e 14 be 9b d0 a8 3d
       -0.059991 0.09506751 -0.14458723 0.08242913
000390 4f 1e b3 bf a7 8a 3b be cc 2c cd 3c 0a 50 52 3f
       -1.3993624 -0.1831461 0.025045775 0.8215338
0003a0 02 d1 f4 3e c4 97 89 be 48 9a 95 be 54 23 ac 3d
       0.4781571 -0.268736 -0.2921927 0.08405176
0003b0 5e f5 b4 bf 73 50 8d bd 91 8d 6d bf f5 81 b0 be
       -1.413738 -0.0690011 -0.9279414 -0.3447415
0003c0 07 8a 32 3f 1e 43 a7 3d bd 06 60 bd f6 3c a5 bf
       0.69741863 0.081670985 -0.054693926 -1.2909229
0003d0 bf e6 b4 be f7 77 ad bd e9 d6 f4 bf 83 1c 03 40
       -0.35332295 -0.08470147 -1.9128085 2.0486152
0003e0 bf c7 fb bf 84 7c 7a bf 1f d6 8d bf f0 8c 60 3d
       -1.9670333 -0.97846246 -1.108097 0.05482191
0003f0 c2 6d d4 bf 90 ce 0e bf 61 44 26 3e b8 58 b5 bf
       -1.6595995 -0.5578394 0.16237022 -1.41677

enc_rnn.weight_hh_l0 f4 [512, 128]
000000 b0 b1 02 3e 1b d1 8a be e6 7d 20 be ef 09 81 3c
       0.12763095 -0.2711266 -0.15673026 0.015751807
000010 1b 8b 84 3e ec 23 8c bc f0 66 29 3f 68 9c 68 be
       0.2588738 -0.017106973 0.66172695 -0.22715914
000020 ab 4e 90 be a2 b8 ae 3c 33 37 17 bd 39 43 85 be
       -0.2818502 0.021328274 -0.036917876 -0.2602785
000030 88 f0 1a 3e 5b 7d 5b bd bf b1 4d be b5 c7 05 bf
       0.15130818 -0.053586345 -0.20087336 -0.52257854
000040 6e 6e 12 3f fe e0 c1 3e d8 1a 65 3d 84 63 9c 3d
       0.5719975 0.37866968 0.055933803 0.076361686
000050 c3 13 6c 3f 73 1e 5c be 3c 94 ce bd 39 87 83 bc
       0.92217654 -0.2149599 -0.10086867 -0.01605569
000060 47 d1 ed 3d d4 80 0d bd 87 c8 2c 3b e7 2f 21 bd
       0.11612182 -0.03454669 0.002636464 -0.039352324
000070 25 b4 48 be 05 46 d8 be c5 af 14 be b6 85 91 3e
       -0.1959997 -0.4224092 -0.14520176 0.28422326
000080 d3 70 c6 3d bb 2c 74 be ad 48 ec bd 8d 91 20 be
       0.09689488 -0.23845188 -0.11537299 -0.15680523
000090 ca e1 2d 3e df b6 f2 be 19 49 65 3e ba 57 27 be
       0.16980663 -0.47405145 0.22391166 -0.16342059
0000a0 99 c2 33 3e 7a a3 0e be f2 84 b3 3d df 1a 4f bc
       0.17554702 -0.13929549 0.08765592 -0.012640684
0000b0 53 52 0c 3d 68 4b ac be ea d3 5a be fe 13 1c 3d
       0.034258198 -0.3365128 -0.21369901 0.038105004
0000c0 c8 7d b6 3e 8c 8b a5 3b 67 a9 b0 be 4d 80 10 3f
       0.35642838 0.0050520357 -0.34504244 0.5644577
0000d0 96 83 34 3e 02 ed 57 be 69 3a 3a 3e 05 19 ae bd
       0.17628321 -0.21086505 0.18186344 -0.08500866
0000e0 4d 80 f5 3d 76 d0 0e be f5 f1 e1 3d c9 0e 07 be
       0.11987362 -0.13946709 0.11032478 -0.13189234
0000f0 1e 95 05 bd 6f 09 db 3e 8a 64 34 3b 70 6f 19 3d
       -0.032612912 0.42780635 0.0027525746 0.03745979
000100 ea 5d 20 3d 2a 78 0d 3f ec 23 1a bf 8b 0f 9e 3e
       0.039152063 0.5526148 -0.6021106 0.30871233
000110 59 a1 50 bd 91 ed a8 3d ac 2d bb be d0 46 02 3e
       -0.050935123 0.08248437 -0.36558282 0.12722325
000120 6f f6 94 3d 02 1a 7a 3e aa 77 19 3e b8 7c 25 3e
       0.07273566 0.24423984 0.14987054 0.16160858
000130 45 7a 64 bf a3 e5 33 3e 60 22 10 bd 61 ae 21 3e
       -0.8924907 0.17568068 -0.035189033 0.15789177
000140 4d 3f fb bd e9 43 cf ba c5 fe c1 3d 26 a0 46 be
       -0.12267933 -0.0015813085 0.094724216 -0.1939703
000150 b1 0f 02 3f 46 a0 2a bd 74 1e 47 3e c7 6f d4 be
       0.50805193 -0.041656755 0.1944521 -0.4149153
000160 a5 e3 c7 3e 2e f5 dc bd d9 35 c6 3e c5 61 27 bf
       0.39040866 -0.10788952 0.38712958 -0.6538356
000170 ae 9e c8 be bb eb 39 be 54 84 a2 bd cc 43 57 bd
       -0.39183563 -0.1815633 -0.07935396 -0.05255489
000180 67 0e bc 3e ea d8 52 3e 77 8b 67 3e bd 07 b1 bd
       0.36729738 0.20590559 0.22611795 -0.08644054
000190 5c e0 c4 3f 48 17 cc bc 05 d0 4f be ee ee 4d bd
       1.5380969 -0.024913445 -0.20294197 -0.05027669
0001a0 c3 17 39 3e 1e 71 1e be e2 05 1b be 36 0a 5d 3e
       0.1807547 -0.15472838 -0.15138963 0.21585926
0001b0 d8 61 ed 3c 56 b2 19 3c 8d 99 d8 bd 24 60 ab be
       0.02897732 0.0093808975 -0.105761625 -0.33471787
0001c0 8c 56 ea 3c c4 3a 53 be 30 ff f7 3d 92 08 09 be
       0.028605722 -0.20627886 0.1210922 -0.13382176
0001d0 af 28 c3 3e 82 cb 0f be dd f1 9f bd 13 7c 8b 3e
       0.38116977 -0.14042476 -0.07809804 0.272431
0001e0 27 9c f0 be 1f 79 d0 be 70 ce 41 3f bd cc f6 3d
       -0.46994135 -0.40717408 0.75705624 0.120507695
0001f0 46 6b 5d 3e 73 25 35 3e 2c af 81 bd ec de 32 be
       0.21622953 0.17690067 -0.063322395 -0.1746785
000200 e6 5a 29 be c7 00 37 bf e0 44 0d 3f 80 32 a0 3e
       -0.16538581 -0.7148556 0.5518322 0.31288528
000210 ce 64 31 bf 6a 66 b4 3f 85 2b 2f bf 62 a8 b4 3f
       -0.6929444 1.4093754 -0.6842578 1.4113886
000220 41 7d 63 3f 46 44 98 bf 6d 4e d1 3e 0f 02 79 3f
       0.88863 -1.1895835 0.40880147 0.97268766
000230 e9 ca 50 bf 2e 1a 81 3f 5e b9 78 bf 74 62 e7 be
       -0.81559616 1.0086114 -0.9715785 -0.451923
000240 3c 82 88 3f 4d e0 b4 3f 89 aa 2f be 70 fa 81 bf
       1.0664744 1.4130951 -0.17154898 -1.0154552
000250 81 55 05 be 59 28 51 bf e8 d7 6d bf 9b f1 65 be
       -0.13020898 -0.8170219 -0.9290757 -0.22455446
000260 ed d5 16 3f 86 f4 1a c0 b8 db 69 bf eb 3c bf 3f
       0.58920175 -2.4211745 -0.9135089 1.4940466
000270 31 e1 03 c0 e5 1c 4b 40 21 af 72 3f 3b 82 54 bf
       -2.0606196 3.1736386 0.94798476 -0.83011216
000280 4b e3 9e bf a3 2b 64 3f 86 e2 bf bc 80 1e 6c bf
       -1.2413114 0.89129084 -0.023423444 -0.9223404
000290 46 df e6 be 5c d5 d4 be 9c fd 4b be d5 17 da 3f
       -0.4509222 -0.4156903 -0.19920963 1.7038523
0002a0 fb 66 f1 bf 7c 76 3a be d7 e6 d1 3f ec ad a4 bf
       -1.8859552 -0.1820926 1.6398572 -1.2865577
0002b0 67 9f a3 3f 95 db 86 bf 7e 00 d4 bf ab 5b e4 bd
       1.2783021 -1.0535761 -1.656265 -0.11150297
0002c0 20 4a 5b 3e a5 e5 9a bf 47 5c ee 3f e7 92 d6 be
       0.21414995 -1.2101332 1.8621911 -0.41908953
0002d0 f4 19 46 40 cb 2b cf bd 53 a3 84 3e 69 e0 80 3e
       3.095334 -0.10115775 0.25905856 0.2517121
0002e0 43 4f da bd 64 38 a5 bf 64 9a 90 be 64 76 12 c0
       -0.10659649 -1.2907834 -0.2824279 -2.288476
0002f0 13 eb cb 3d 9e 3b 57 bf 21 61 34 be 1b db 7e be
       0.09956946 -0.84075344 -0.17615177 -0.2488827
000300 86 df fc bd c6 4a 8c bf c2 b2 3b bf 96 47 a6 bf
       -0.12347321 -1.0960319 -0.7331964 -1.2990596
000310 e4 3a 65 3f d0 a4 8c 3d bc a3 04 40 c4 b6 fe 3e
       0.89542985 0.06867373 2.0724936 0.49748814
000320 da af 03 3e 67 c6 01 3e bc b4 18 3f f2 99 28 be
       0.12860051 0.1267334 0.5965078 -0.16464975
000330 e1 71 e8 be a5 9c 91 bf d7 c7 8a bf 86 bb b3 bf
       -0.45399383 -1.1375929 -1.0842236 -1.4041603
000340 70 9a 07 c0 12 97 85 bf 60 2b cf bf c5 d6 30 be
       -2.118801 -1.0436728 -1.6185112 -0.17269428
000350 c9 a1 03 bf 42 7f 03 c0 5e f4 cb 3e 67 69 cf bf
       -0.5141874 -2.0546422 0.39834875 -1.6204041
000360 10 a5 6b 3f 2e 55 84 3f 9d 5a c1 3f 92 fb 62 be
       0.9204874 1.0338495 1.5105778 -0.22166279
000370 eb 31 fa 3e ed ab 35 40 16 8e 4b 3f c5 10 a0 bc
       0.4886621 2.8386185 0.7951368 -0.019539246
000380 79 e4 37 be 97 f6 f4 be ad fe 30 3f 17 bd 84 3f
       -0.17958249 -0.47844383 0.69138604 1.0370206
000390 70 c8 71 3f 2c 2f 0d 3f 3e 68 e1 bf 0f 0d 3b bd
       0.9444647 0.55150104 -1.7609937 -0.04566675
0003a0 9d ce 08 bf 98 a9 77 bf 6d 73 bf 3e f1 34 0e 3e
       -0.53440267 -0.96743155 0.3739275 0.13887383
0003b0 b8 9e bf bf 95 ec ca 3f 55 94 82 3f 74 5c 73 bd
       -1.4970312 1.5853449 1.0201517 -0.059414342
0003c0 b1 eb b8 bd ac c9 06 40 b1 98 0d bb 8f 5a e4 3e
       -0.090293296 2.106059 -0.0021605904 0.4460034
0003d0 97 0f f9 3f 03 6f 01 c0 eb c7 06 3e 37 67 75 bf
       1.9457883 -2.0224006 0.131622 -0.9586062
0003e0 06 80 02 40 82 92 0d 3d 5c 6b eb 3e 92 5b 7a 3f
       2.039064 0.03456355 0.45980346 0.97795975
0003f0 d2 a3 8a 3f a9 37 5a 3f 50 99 28 be aa ad 88 3f
       1.0831244 0.8524118 -0.16464734 1.0677998

enc_rnn.bias_ih_l0 f4 [512]
000000 0e 5f ed bf e1 6e e6 be 5e c2 b5 be 1e 84 0f c0
       -1.8544633 -0.4500647 -0.35499853 -2.2424388
000010 d2 cb 04 bf b0 96 f3 be 2f 54 90 3e fa 46 0a c0
       -0.51873505 -0.47575903 0.28189227 -2.160582
000020 96 7b 5c bf b5 f2 d1 bf 0d 82 87 bf 63 0f f3 bf
       -0.8612608 -1.6402193 -1.0586563 -1.8989071
000030 d0 90 3a bf 06 c2 ae bf e3 71 48 be d7 59 87 bf
       -0.72877216 -1.3652961 -0.19574694 -1.0574292
000040 03 0f a6 bf ed 05 c5 bf 9e 5b ce bf 2a f8 e6 bf
       -1.2973331 -1.5392433 -1.6121709 -1.8044484
000050 5f 9e 21 bf 9b ed a6 bf 5b cb ca bf d6 5d 19 bf
       -0.6313228 -1.3041261 -1.5843309 -0.5990881
000060 df a5 9b bf 2a 52 5f bf 54 ad d6 bf 51 e2 93 bf
       -1.2159995 -0.8723475 -1.6771646 -1.1553441
000070 f0 b5 cb bf 36 6a 8a bf 17 b0 b4 bf fa 4e 7a bf
       -1.5914898 -1.0813663 -1.4116238 -0.9777676
000080 4d ae 1c c0 59 b4 33 bf 8e 67 09 c0 da 1c ee bf
       -2.4481385 -0.70197064 -2.1469455 -1.8602555
000090 9c 84 c6 bf 05 c9 0c 3e dd 2f a1 be ef a4 92 bf
       -1.5509219 0.13748558 -0.3148183 -1.1456584
0000a0 2f 97 6d bf 9a f7 e9 bf 84 aa 5d bf e7 5d 0a c0
       -0.9280881 -1.8278687 -0.8658831 -2.1619813
0000b0 9a 22 c0 bf a9 8a 0f bf fc 8f c3 bf 28 81 d5 bf
       -1.501056 -0.56070954 -1.5278316 -1.668004
0000c0 8f 7c 00 c0 81 b1 7f bf 69 9d 9d bf 25 37 9b bf
       -2.0076025 -0.99880224 -1.2313663 -1.2126204
0000d0 9d de 25 bf 6a da 34 c0 e4 45 19 c0 d1 da e2 bf
       -0.64792806 -2.825831 -2.3948908 -1.7723027
0000e0 af 7e eb be d6 84 01 bf da 96 10 c0 9a e8 6c bf
       -0.4599509 -0.50593317 -2.2592072 -0.9254242
0000f0 f0 db 00 c0 65 17 ae bf 3b 66 d1 bf de f7 be bf
       -2.013424 -1.360089 -1.6359323 -1.4919393
000100 21 b6 f7 bf 0a f4 7a be c3 33 16 bf a8 51 ae bf
       -1.9352456 -0.24507156 -0.5867273 -1.361867
000110 a5 8b a2 bf 7b e7 7c bf b5 c8 75 bf 5a 8d e6 bf
       -1.2698866 -0.9879071 -0.9600938 -1.8011887
000120 44 7a d6 bf 7f 28 af bf c8 3e 38 bf e4 53 f4 bf
       -1.6756063 -1.3684233 -0.71970797 -1.9088101
000130 a7 f1 81 be 9b 1a 99 bf ed c1 eb bf ab 4b b7 bf
       -0.2537968 -1.1961244 -1.8418556 -1.4319967
000140 99 5c 81 bf 1f 16 8e bf a1 01 76 bf bf 48 66 bf
       -1.0106384 -1.1100501 -0.96096236 -0.8995475
000150 14 49 84 be 9a 43 55 bf e7 57 c2 bf ad 56 19 be
       -0.25837004 -0.83306277 -1.5183076 -0.1497447
000160 c7 c3 96 bf 8f 83 89 bf 6c aa 1c be dd 87 fe be
       -1.1778497 -1.0743273 -0.15299386 -0.4971303
000170 fb 1f 52 bf 85 e7 d5 bf c6 a6 13 c0 36 f6 55 bf
       -0.8208005 -1.6711279 -2.307054 -0.83578813
000180 75 b5 6f bf bc d5 61 bf a3 fd 22 bf 01 21 5a bf
       -0.93636256 -0.8821676 -0.6366827 -0.8520661
000190 48 48 63 be 16 83 97 bf 5f 1a e4 bd f8 43 d6 bf
       -0.22195542 -1.1836879 -0.111378424 -1.6739492
0001a0 40 80 c0 bf 65 f3 b4 bf 1b 91 b9 bf c9 97 ef be
       -1.5039139 -1.4136778 -1.4497408 -0.4679549
0001b0 a9 3d 74 bf 66 27 94 bf fa 94 5f bf 2b af da bf
       -0.95406586 -1.1574523 -0.87336695 -1.7084707
0001c0 74 40 9d bf 70 4c 70 bf ac 04 28 c0 67 45 9a bf
       -1.2285295 -0.93866634 -2.6252851 -1.205243
0001d0 09 22 fa be 28 5e b2 bf b0 ca ac bf be df 22 c0
       -0.48854092 -1.3934984 -1.3499355 -2.5449061
0001e0 ff 27 97 bf 17 87 4c bf f2 86 60 bf db 3d f6 be
       -1.1809081 -0.7989363 -0.8770591 -0.48094067
0001f0 dc 9c f8 bf 6f a9 01 c0 4f cb d9 bf c6 cb 93 bf
       -1.942287 -2.0259664 -1.701517 -1.1546562
000200 16 d1 2e bf 5f d4 c6 3e e8 94 00 3e 64 35 57 be
       -0.6828779 0.388339 0.12556803 -0.2101646
000210 06 e2 7a bd 58 60 a2 be 2f 19 ce be b1 3d b9 be
       -0.06125071 -0.3171413 -0.4025359 -0.3617988
000220 12 18 19 bd 82 a8 52 bf 55 67 b5 3e 04 c3 0e bf
       -0.03737647 -0.8228837 0.354304 -0.5576632
000230 7a f7 e3 3e d3 2b ee be 94 8c fb 3e 11 eb 5b 3f
       0.44524747 -0.4651781 0.4913069 0.8590556
000240 1d 08 96 3d d7 05 0b 3f fa ee e1 be e1 46 4c 3d
       0.07325766 0.54305786 -0.44127637 0.049872283
000250 77 86 b5 be 54 39 7e bf 45 82 a0 bf 6f a0 e4 3e
       -0.3545415 -0.99306226 -1.2539755 0.4465365
000260 f1 ee c2 bd fa b1 47 3f 4b 3d f6 be 74 4d 09 bf
       -0.09518231 0.78005946 -0.48093638 -0.5363381
000270 19 95 7e 3e ad d5 84 3f 1e 8a 3e bf ac 7f c8 3d
       0.24861564 1.0377709 -0.744295 0.097899765
000280 a3 bd 00 bf 9c ab f8 3b c9 4f 12 bf 71 88 2b 3e
       -0.5028936 0.007588817 -0.5715299 0.16751267
000290 d5 43 a1 be 5b d3 8c be 9c 82 15 3f d6 d5 56 bf
       -0.31497064 -0.27505 0.5840242 -0.8392004
0002a0 a4 b8 22 3e 8b 4c 8a be 55 35 8e 3f 33 91 13 be
       0.15890747 -0.27011523 1.1110026 -0.14410858
0002b0 3f 35 66 be 53 86 30 3d 09 54 52 bd 8d 54 7e bf
       -0.2248125 0.04309685 -0.051349673 -0.99347764
0002c0 df bc 0b bf 14 5b 19 bc 7b 12 ea bf 93 73 a9 3e
       -0.5458507 -0.009360094 -1.828689 0.3309599
0002d0 16 e8 46 3f 4f 4c 0d bf 86 ad 81 bf 62 1d 25 3f
       0.77697885 -0.5519456 -1.013108 0.6449796
0002e0 82 ff 32 bf eb 37 e0 3e fc 98 39 be d9 2a 5c 3e
       -0.69921124 0.43792662 -0.18124765 0.2150072
0002f0 23 93 45 bf 97 60 b9 bd 87 42 89 be 6d fb 7d bf
       -0.7717764 -0.09051626 -0.2680857 -0.9921177
000300 dc c0 f4 be ef c3 0a 3e 55 71 c8 3a db cc 74 3f
       -0.4780339 0.13551305 0.0015292565 0.95625085
000310 eb 9f 0b bf f3 dc 00 bf 3e de 40 be ce 07 57 3f
       -0.5454089 -0.5033714 -0.18834779 0.83996284
000320 86 d5 21 bf 64 c9 28 bf 4c fa 27 be 3f 6a e7 be
       -0.63216436 -0.659323 -0.16404074 -0.45198247
000330 48 76 b5 3e 15 59 24 bd 15 2d 6a be b4 d2 1a bf
       0.35441804 -0.040124018 -0.2286876 -0.6047776
000340 ed ee 14 3f 53 e0 bf bd eb 54 b8 bf f1 08 92 bf
       0.5817707 -0.09368958 -1.4400915 -1.1408979
000350 2c 8e 30 bf 14 54 07 be 8a a9 98 be a5 5f 89 be
       -0.6896694 -0.13215667 -0.29816848 -0.26830783
000360 a8 59 88 3c f0 21 79 bf a8 3e f0 3d d8 e5 56 3f
       0.016644314 -0.9731741 0.11730701 0.83944464
000370 64 f5 10 3e 13 09 fe 3c c9 d5 92 bd da 6e 38 3f
       0.14156109 0.031010186 -0.071696825 0.72044146
000380 d8 d2 0c 3f 08 73 81 bf d7 87 d1 bd 00 db 20 3d
       0.5500922 -1.011323 -0.102309875 0.039271355
000390 43 2e c5 3e 69 94 f0 3e 7f c2 1d 3f 96 6b 33 be
       0.38511857 0.46988228 0.616249 -0.1752151
0003a0 9a 27 c0 be 3f 66 80 bf 9c 20 b4 be 70 6d 50 3e
       -0.37530214 -1.0031203 -0.3518113 0.20354247
0003b0 8b 07 d4 bd 3e 97 b3 be 46 00 32 3f 14 8e d1 be
       -0.10353001 -0.35076326 0.6953167 -0.4092871
0003c0 c9 4b 3c bf 59 39 56 be 8f a2 11 be 10 ec 24 bf
       -0.7355314 -0.20920314 -0.14222167 -0.644227
0003d0 8f 27 ed bd c3 05 c9 be 99 65 66 be 8c 14 da be
       -0.11579811 -0.39262208 -0.22499694 -0.425938
0003e0 d1 93 83 3e 15 25 fb be a7 f9 de be 83 2c 0e be
       0.25698712 -0.4905173 -0.43549845 -0.13884167
0003f0 1a e7 90 bf e6 ed 86 bc ec a7 32 bf c4 c1 86 3e
       -1.1320527 -0.01647086 -0.6978748 0.26319706

enc_rnn.bias_hh_l0 f4 [512]
000000 ea de f4 bf 45 8d bd be f7 11 b6 be ca aa 12 c0
       -1.9130528 -0.37021843 -0.3556058 -2.2916741
000010 84 ef eb be 42 d9 e5 be 53 95 61 3e 3f 7a 07 c0
       -0.46081173 -0.44892317 0.22029619 -2.1168363
000020 bc e3 35 bf e1 b7 d8 bf 23 12 84 bf 1e 2d ec bf
       -0.7105062 -1.6931115 -1.0318035 -1.8451269
000030 8a 18 33 bf 89 96 bf bf 5a 62 54 be 45 06 88 bf
       -0.6995932 -1.4967815 -0.20740643 -1.0626913
000040 3c bc 9e bf b5 89 d7 bf 2b 38 dc bf 66 42 e1 bf
       -1.2401195 -1.68389 -1.7204641 -1.7598388
000050 9b 0f 23 bf 78 cc b9 bf 55 09 c1 bf 77 e9 3a bf
       -0.6369569 -1.4515524 -1.5080973 -0.7301249
000060 9f 2e a3 bf a1 36 79 bf 05 d6 e2 bf 86 af 90 bf
       -1.2748603 -0.9734898 -1.7721564 -1.1303566
000070 e6 51 ce bf 3c c0 8a bf a4 3f bd bf 5f a9 81 bf
       -1.6118743 -1.0839915 -1.4785047 -1.0129813
000080 b8 98 1c c0 92 3a 4b bf c0 7f 0b c0 4b 9a f4 bf
       -2.4468212 -0.79386246 -2.1796722 -1.9109586
000090 73 d6 c7 bf 3d 32 53 3e d6 dd 9f be 64 b5 8c bf
       -1.561232 0.20624633 -0.31223935 -1.0992856
0000a0 5b f3 7e bf 82 c2 f7 bf 56 76 67 bf b3 32 0f c0
       -0.9959008 -1.9356234 -0.9041494 -2.2374694
0000b0 43 92 c7 bf 64 1a 01 bf 37 c8 cb bf 13 48 d1 bf
       -1.559151 -0.50430894 -1.5920476 -1.635012
0000c0 89 82 00 c0 1e f5 82 bf b1 c5 92 bf 50 98 93 bf
       -2.0079672 -1.0231054 -1.1466581 -1.1530857
0000d0 77 28 09 bf 95 da 2e c0 80 f4 1f c0 d3 e0 d2 bf
       -0.5357737 -2.7320912 -2.499298 -1.6474861
0000e0 37 ae f0 be e0 09 07 bf 31 c3 10 c0 60 6e 66 bf
       -0.47007915 -0.52749443 -2.2619135 -0.9001217
0000f0 07 76 04 c0 62 ce a3 bf ae c1 d1 bf be 39 d1 bf
       -2.0697038 -1.2797358 -1.6387231 -1.6345747
000100 b4 0c ef bf 21 1b 3e be 3b c4 16 bf d2 68 b7 bf
       -1.8675752 -0.18565036 -0.58893174 -1.4328864
000110 26 1f a0 bf df 85 8b bf ca 67 7d bf c4 96 db bf
       -1.2509506 -1.0900229 -0.98986495 -1.7155385
000120 04 04 dc bf 2f c8 b5 bf a3 37 2e bf 38 fb 01 c0
       -1.7188725 -1.4201716 -0.68053645 -2.0309582
000130 1b 70 b8 be d2 59 9d bf 6e 1f e4 bf b6 d6 a9 bf
       -0.3602303 -1.2293036 -1.7822092 -1.326865
000140 1f 0e 85 bf 5a 59 98 bf 3b 03 89 bf c7 db 4c bf
       -1.0394934 -1.1902268 -1.0704111 -0.80022854
000150 a6 dd 9e be fc 43 62 bf cf 7f bd bf 9f bf 3a be
       -0.3102848 -0.88384986 -1.4804629 -0.1823716
000160 a0 d3 a1 bf 8e 99 8f bf f8 88 3b be e5 b5 f7 be
       -1.2642708 -1.1218736 -0.18313968 -0.48380962
000170 0a 59 5e bf 17 aa d1 bf e0 77 1b c0 92 d9 54 bf
       -0.8685461 -1.6380032 -2.4291916 -0.83144486
000180 44 5f 55 bf 0b c7 71 bf 84 f0 08 bf 78 52 5f bf
       -0.8334849 -0.9444434 -0.53492 -0.8723521
000190 12 41 84 be 85 9b 81 bf bd a3 e3 bd 31 82 d5 bf
       -0.25830895 -1.0125586 -0.11115215 -1.6680356
0001a0 25 8c bc bf 9c 5d bc bf 7c f4 b8 bf 0b f0 01 bf
       -1.4730269 -1.4716067 -1.4449611 -0.507569
0001b0 61 4d 72 bf de f8 9f bf db 5f 73 bf 99 b8 e8 bf
       -0.9464932 -1.2497823 -0.9506814 -1.8181335
0001c0 3d 90 89 bf 0e 76 67 bf 41 86 23 c0 f0 26 97 bf
       -1.0747143 -0.9041451 -2.5550692 -1.1808758
0001d0 35 4d 08 bf 0c c3 ac bf 28 5e ab bf c3 d4 26 c0
       -0.5324281 -1.3497024 -1.3388109 -2.606736
0001e0 c5 fb 97 bf 8a bf 65 bf 1f 7e 47 bf 07 5b e9 be
       -1.1873709 -0.8974539 -0.7792682 -0.4557726
0001f0 d3 47 ee bf f1 17 f2 bf 66 98 e5 bf 9a 8c 83 bf
       -1.8615669 -1.8913556 -1.7937133 -1.0277283
000200 04 a6 1c bf 62 14 b6 3e 1c c4 73 3d 15 1c b2 be
       -0.6119082 0.35562426 0.059513196 -0.3478705
000210 14 3e e4 bd ee 72 e9 be 98 7f b7 be 15 4a 97 be
       -0.11144653 -0.45595497 -0.35839534 -0.29548708
000220 3b b7 a3 3c b6 01 53 bf 11 62 97 3e cd 1e 12 bf
       0.019984832 -0.82424486 0.29567006 -0.5707825
000230 5c 1e e7 3e f9 44 17 bf 0a 9d ef 3e 42 ef 60 3f
       0.4514035 -0.5908962 0.467995 0.8786508
000240 ad 9a 35 3e be bf 10 3f 7b ab d2 be 9b 0b 1f bc
       0.17734785 0.56542575 -0.41146454 -0.009707357
000250 d3 79 a4 be d4 86 86 bf 21 ae 92 bf b2 19 db 3e
       -0.32124195 -1.0509896 -1.145939 0.4279304
000260 b2 65 80 ba 0e d5 3f 3f 2d 01 0e bf 30 c7 eb be
       -0.0009795933 0.7493447 -0.55470544 -0.46050406
000270 32 35 2d 3e 13 4f 8a 3f 00 f7 52 bf a1 9f 02 3e
       0.16914824 1.0805382 -0.8240814 0.12756206
000280 0f 7c ee be a0 55 ce bd b9 a9 2c bf 8d f4 7f 3e
       -0.46579024 -0.100749254 -0.67446476 0.24995632
000290 80 6a cf be d4 08 82 be fd 8e 23 3f 77 d5 5f bf
       -0.4051094 -0.2539736 0.6389006 -0.87435097
0002a0 f6 bd fb 3d 6f 4b 8d be 94 25 84 3f 73 48 6e be
       0.122920915 -0.27596614 1.0323968 -0.23269825
0002b0 c1 db 54 be a1 fe 18 3d c5 07 5f bd 96 00 85 bf
       -0.20786954 0.037352208 -0.05445077 -1.0390804
0002c0 87 ca 0e bf 36 07 71 bd 61 82 eb bf 1c 6c 96 3e
       -0.5577778 -0.058844768 -1.8399163 0.29379356
0002d0 f9 cf 5c 3f 83 50 da be 6d 8d 60 bf e8 82 11 3f
       0.8625484 -0.4263955 -0.877158 0.5684037
0002e0 e1 d0 38 bf e7 83 ff 3e 5b 06 5e be 9f 9b 3c 3e
       -0.72193724 0.4990532 -0.21682112 0.1841874
0002f0 9f 24 36 bf a9 e5 b1 bd 7b 22 bb be 4e 19 87 bf
       -0.7114963 -0.08686382 -0.36549744 -1.0554597
000300 b8 36 10 bf ab 08 a5 bb 03 be 8a 3d b3 c4 72 3f
       -0.56333494 -0.0050364337 0.06774523 0.9483139
000310 f7 8c d2 be 3b 37 df be a9 0d 01 be 9e f2 3d 3f
       -0.41123173 -0.43596825 -0.12602867 0.7419833
000320 06 08 35 bf d2 cd 1d bf a3 72 53 be af d9 cf be
       -0.7071537 -0.6164218 -0.20649199 -0.40595767
000330 42 3f c7 3e b6 69 1f 3d 50 b1 0e be 41 6d 1c bf
       0.3891545 0.038919173 -0.13934827 -0.6110421
000340 e4 23 16 3f db 64 08 bd 68 98 a7 bf 5f df 84 bf
       0.58648515 -0.03329931 -1.3093386 -1.0380667
000350 8c 5d 27 bf b9 2e 16 bd 93 d0 d1 be 5e fa 52 be
       -0.65377116 -0.036665652 -0.40979442 -0.2060332
000360 b6 51 ae bd ff 08 6f bf 19 5a 96 3d 3c d0 3a 3f
       -0.08511679 -0.933731 0.073414035 0.7297399
000370 91 e5 29 3e 0f 40 2c 3d 2c 08 40 be a3 af 1a 3f
       0.16591479 0.04205328 -0.18753117 0.6042425
000380 3c d4 10 3f 97 12 84 bf b3 6d 7e bd 98 c3 af bd
       0.56573844 -1.0318173 -0.062116336 -0.085822284
000390 53 ca d4 3e f8 3e 05 3f 48 78 0f 3f 46 02 35 be
       0.4156061 0.5204921 0.5604291 -0.17676648
0003a0 20 40 00 bf ab 80 6f bf 10 ba 9c be 29 11 ba 3d
       -0.50097847 -0.93555707 -0.30610704 0.09085304
0003b0 61 9e 5d be 6b 27 b4 be 1b 67 43 3f 1e 20 e8 be
       -0.21642448 -0.35186324 0.763292 -0.45337003
0003c0 4e 6a 37 bf 0c c2 46 be ca 4d 0b be eb 64 0c bf
       -0.71646583 -0.1940996 -0.13603893 -0.5484149
0003d0 84 35 e7 bd 6e a8 c9 be 25 3a 8c be 9b 2a f2 be
       -0.11289504 -0.39386314 -0.2738811 -0.4729813
0003e0 1d af 45 3e 0d d3 db be 3c d8 dc be 48 98 13 be
       0.19305082 -0.42934456 -0.43133724 -0.1441356
0003f0 0a 7b 84 bf c8 46 db bb 18 2b 34 bf d2 e0 b3 3e
       -1.0350049 -0.0066917874 -0.70378256 0.35132462

enc_rnn.weight_ih_l0_reverse f4 [512, 3]
000000 04 12 ba be da db 54 3d b8 84 7a be 28 db cb be
       -0.3634187 0.05196748 -0.2446469 -0.3981564
000010 67 d5 54 3d eb 4a 25 be 95 f8 de be fd 3a c9 3c
       0.05196133 -0.1614186 -0.43549028 0.02456426
000020 a1 74 5c be 8e 5f d6 be 76 dd aa bc d3 4c 4b be
       -0.21528865 -0.41869777 -0.020857554 -0.19853525
000030 ff fc cb be 43 a1 dc 3d f4 05 98 be df 9c c1 be
       -0.39841458 0.10772946 -0.29692042 -0.37814996
000040 59 8e 13 3e 0a d0 2e be 7d 72 c1 be 0f 2b 06 bd
       0.1440977 -0.17071548 -0.3778266 -0.032755908
000050 ff d1 2e be 2d 1e a7 be 9f 72 89 3d 4e a9 04 be
       -0.17072295 -0.3264021 0.06711315 -0.1295521
000060 52 3f d9 be 90 56 6c 3d f4 d3 f4 bd 84 2e a7 be
       -0.42431122 0.05769974 -0.11954489 -0.32652676
000070 7e 50 f5 3d 3f c7 e7 bd 62 cd c5 be 03 14 60 3d
       0.11978243 -0.113173 -0.38633257 0.054706585
000080 24 16 1d be e8 ad c9 be fb 0a a2 3d 5e 55 6a be
       -0.15340477 -0.39390492 0.079122506 -0.22884127
000090 79 4f b8 be 78 03 de 3d 5b e0 14 be 8e 25 b5 be
       -0.35998133 0.10840505 -0.1453871 -0.35380214
0000a0 6f ce 97 3c 77 e5 22 be 11 8e ab be 1e e2 20 3c
       0.018531052 -0.15907846 -0.33506826 0.009819536
0000b0 06 bd 0e be fb 5b c6 bb a9 fa 5b 3f 5f b7 3d be
       -0.13939294 -0.0060534454 0.8592935 -0.18526982
0000c0 9e 94 a2 be f4 93 4a 3d 95 1d 12 be fa 0b 1f bf
       -0.3175401 0.049457505 -0.14269097 -0.6212765
0000d0 e7 03 aa 3d 30 e4 76 be 39 d0 d8 be 4f 5f 67 3d
       0.083015256 -0.24110484 -0.4234636 0.056487378
0000e0 aa ac 61 be 30 5a d8 be 2f 76 00 bd 6f dc a2 bd
       -0.22038522 -0.42256308 -0.03136271 -0.079522006
0000f0 f4 bf 97 be 30 32 18 3e 6d 1e 99 bd 4f a7 c2 bc
       -0.29638636 0.14862895 -0.074765064 -0.02376142
000100 92 05 91 be 65 8a 72 3f 6d bd bc be c1 0b 86 3d
       -0.28324562 0.94742423 -0.3686327 0.06545211
000110 76 5c 60 be 83 b6 1a be 3e 60 e8 3d bc 84 c8 bc
       -0.21910271 -0.15108685 0.11346482 -0.024477355
000120 cc 72 b7 be c1 18 29 3d 77 90 09 be de 77 bf be
       -0.3582977 0.041283373 -0.13434015 -0.3739614
000130 64 fe f7 3c ce 1c 44 be 01 9c ca be 62 bf 5f bd
       0.03027267 -0.19151613 -0.39572147 -0.054625876
000140 34 55 6c be 7c 25 1b be 4d b2 b5 3e 71 30 26 be
       -0.23079377 -0.15151018 0.35487595 -0.16229416
000150 90 79 b5 be 74 b4 b4 3d 45 17 1e be ac 06 c7 be
       -0.35444307 0.08823481 -0.15438564 -0.38872278
000160 5e bd 64 3d 69 fc 54 be 03 c1 d5 be cf f8 02 bd
       0.055844657 -0.20799412 -0.4174882 -0.031975564
000170 7f 6d 64 be 48 68 55 be 7e 79 3d bc 12 5a a5 3e
       -0.22307394 -0.20840561 -0.0115646105 0.3229528
000180 83 e0 80 be 65 c5 e4 3d f0 1a b9 bd d0 fe d5 be
       -0.2517129 0.111704625 -0.09038341 -0.4179597
000190 3d bf 04 bd 31 cf f1 bd 88 38 7e be 01 0d fc 3d
       -0.03240894 -0.11807097 -0.24826252 0.12307168
0001a0 a6 25 cd bd b0 bd cd be 83 d3 84 3d 0e a8 39 be
       -0.100169465 -0.40183783 0.06485655 -0.18130514
0001b0 eb 80 55 be be a6 a6 3b 03 fe 92 bd 16 7b c4 be
       -0.2084996 0.005085795 -0.07177355 -0.38375157
0001c0 b0 78 28 3e 74 45 46 be f1 39 bd be 1a c1 ea 3d
       0.16452289 -0.19362432 -0.36958268 0.114626125
0001d0 75 cb e5 bd a6 c7 41 be 83 1e 8d 3d ee b8 d2 bd
       -0.11220447 -0.18923816 0.06890585 -0.10289179
0001e0 29 51 60 be 8d d0 59 3e ab fd 85 3c 55 98 8f be
       -0.2190596 0.21270962 0.01635631 -0.28045908
0001f0 3d a6 ea 3d 9f 9e 7f bd 41 00 bd be 27 fe d7 3d
       0.11457489 -0.062407132 -0.36914256 0.105465226
000200 86 4d 0d be f5 37 ba be e3 1f 55 3d b5 82 db bd
       -0.13799104 -0.36370817 0.052032363 -0.1071829
000210 65 c8 b6 be ab 1c a6 3d 25 29 26 be 64 0b c4 be
       -0.35699764 0.08110937 -0.16226633 -0.3828994
000220 f3 42 33 3c 23 60 6d be 09 29 a6 be ba 76 b2 3d
       0.010941255 -0.23181204 -0.32453182 0.087140515
000230 fd e2 13 be 8f c9 ba be 5c 90 9f 3d ec 12 20 be
       -0.14442058 -0.36481902 0.07791206 -0.15632218
000240 ca d2 d4 be 1e a2 ee 3c 1a 27 ef bd 42 dd 84 be
       -0.4156707 0.029130038 -0.1167738 -0.25950056
000250 7d d7 86 3d 6d 30 70 bd c7 f2 7b be 45 b4 eb bc
       0.0658407 -0.058639932 -0.24604331 -0.028772483
000260 51 52 a3 bd 76 5e 52 be 87 c6 b8 3d 6f 80 8a bd
       -0.07974685 -0.20543846 0.09022241 -0.06762778
000270 53 22 94 be fb 26 b1 3d bd b4 6c bd 90 04 2b be
       -0.28932437 0.08650013 -0.057789553 -0.16700959
000280 57 c9 e4 3c ee 0b ea bc 8d 88 cb be 1a 05 d9 3c
       0.027928038 -0.028570142 -0.39752617 0.02649169
000290 f8 98 5d be 3f 83 de be 0e 78 81 3d 78 db 6c be
       -0.21640384 -0.43459508 0.06321727 -0.23130596
0002a0 0d ab ba be 1c b4 21 3d 57 d2 25 be 7b 52 c6 be
       -0.36458626 0.039478406 -0.1619352 -0.38734803
0002b0 03 04 b9 3c d4 a7 56 be b1 eb a4 be b5 c9 6f 3d
       0.02258492 -0.20962459 -0.32211068 0.058541972
0002c0 57 35 0e be 4d 19 a6 be 4d f9 b2 3d 7e ff 0a be
       -0.13887535 -0.32441178 0.087389566 -0.13574025
0002d0 c7 c8 c5 be a7 d3 ce bb de 7d 6e be 87 83 cf be
       -0.38629743 -0.006311852 -0.23290202 -0.40530035
0002e0 0e 65 0e 3d 89 77 07 be f2 10 5d be 87 ff f5 3e
       0.034764342 -0.13229193 -0.21588495 0.48046514
0002f0 28 e2 66 be f4 70 cc be 6b f1 dc 3d 58 00 29 be
       -0.2254721 -0.39929926 0.10788234 -0.16504037
000300 d2 16 90 bf 4a ce d6 3e 07 5a 22 bf d0 b6 b6 be
       -1.1256964 0.4195426 -0.6341862 -0.3568635
000310 13 11 b8 3d e6 9d 00 be 4e 51 da be bd 55 c2 3d
       0.08987632 -0.12560233 -0.42640156 0.094890095
000320 a7 2e 6c be 27 6e 95 be b5 c0 09 be 4f e1 ce bd
       -0.23064671 -0.29185602 -0.13452418 -0.10101568
000330 09 cf c8 be b8 02 21 bd 88 5f 35 be 6c a2 bb be
       -0.39220455 -0.039309233 -0.17712224 -0.36647356
000340 7c 1d cc bc b0 d4 64 be c7 e4 c4 be 49 50 40 3d
       -0.024916403 -0.22346759 -0.38455793 0.046951566
000350 02 29 43 be 1c 4d 8e be 39 52 b5 3d d6 be 2f be
       -0.19058612 -0.27793205 0.08853573 -0.17162642
000360 58 67 d1 be 50 4f e3 3c 3a db 3d be 0d e9 cb be
       -0.40899158 0.02774778 -0.1854066 -0.3982624
000370 94 9c 2f 3d ba 32 f7 bd b0 bd 59 be 4d 6b 08 3e
       0.042873934 -0.12070222 -0.21263766 0.13322182
000380 e3 1c 72 bd 0b da a5 be b4 5f 51 3d fc f8 16 be
       -0.05910958 -0.32392916 0.05111666 -0.14743418
000390 30 f9 cd be df f5 2c bd 99 1a 27 be 63 c3 04 bd
       -0.40229177 -0.04222667 -0.1631874 -0.032412898
0003a0 17 91 55 bf 47 9a b5 bc 70 3c 93 be 7e f5 b0 3c
       -0.83424515 -0.022168292 -0.28757048 0.021601435
0003b0 87 5e d6 bd 82 d7 c2 be a2 94 bb 3d 61 e3 35 be
       -0.104672484 -0.38055044 0.09159209 -0.1776252
0003c0 d0 4f e2 be 89 61 c7 3c df 3a ce bd 8a fd 83 be
       -0.44201517 0.0243385 -0.100698225 -0.25779372
0003d0 9d bc 88 3c 4e dd aa bd 82 fa 9d be af 0b 9b 3d
       0.0166915 -0.08342992 -0.30855185 0.07570588
0003e0 11 35 01 be 16 df 8a be 42 1f 4f 3d 8c 73 c8 bd
       -0.126179 -0.27123326 0.05056692 -0.09787664
0003f0 1d 3c bc be 9b c2 ba 3c c5 51 20 be 21 f7 b1 be
       -0.36764613 0.022797873 -0.15656193 -0.34758857

enc_rnn.weight_hh_l0_reverse f4 [512, 128]
000000 c6 c9 43 bd b5 85 a9 3d e9 ac d2 bc b3 84 80 bd
       -0.047799848 0.08277456 -0.025717216 -0.0627531
000010 c4 f1 24 bc 2c 09 74 bd 42 1e 5e bd 9d 28 b5 bc
       -0.010067407 -0.05957906 -0.054228075 -0.022114092
000020 40 0f 3b bd 9f c5 a4 bd 70 e9 0c bd ca 69 1a 3c
       -0.04566884 -0.08045506 -0.03440231 0.009424636
000030 cf 2b 7e 3d bb 3e 93 3d cc c7 5c 3c 85 e2 63 bd
       0.062053498 0.07189699 0.01347537 -0.055635948
000040 ee 86 eb 3c f8 fd a1 bd 59 a7 b4 3c 72 f2 c2 bc
       0.028750863 -0.07909769 0.022052454 -0.023797248
000050 d8 b4 fc 3a 09 47 2e 3d 6a ff 36 3c 7f 40 08 3d
       0.001927997 0.042548213 0.011169294 0.033264633
000060 1f e6 3f bd d0 26 8a 3d 07 88 79 bb ef fb 4b 3d
       -0.04685032 0.06745684 -0.0038075463 0.04980081
000070 5a b5 96 bd 2a 49 a1 3d e1 34 4c 3d c6 c4 98 3c
       -0.07358809 0.07875283 0.049855117 0.018648516
000080 56 c3 53 3d ec c0 95 3c 3d 7d d0 bc 55 f7 9d bd
       0.05169996 0.018280469 -0.025450343 -0.077131905
000090 37 45 e2 bb 47 86 ae bc 8f 4b 96 3d 42 88 0e bc
       -0.0069052237 -0.021304263 0.073386304 -0.008699479
0000a0 c9 40 79 bd 32 23 36 bc b5 df 03 bc 27 df a3 3d
       -0.0608528 -0.01111679 -0.008048941 0.08001547
0000b0 5a 17 36 3d ab 6e 77 bc 59 4b 9b bd a8 d2 a3 bd
       0.044455864 -0.015102069 -0.07582731 -0.07999164
0000c0 09 8e a0 3d 9d d9 b9 3c 62 50 fe bc f2 b7 96 bc
       0.07839591 0.022686774 -0.031044189 -0.018398259
0000d0 15 38 b1 3d 24 e6 78 bc 20 d6 b3 3d 59 1a 05 3d
       0.08653275 -0.015191589 0.087810755 0.03249583
0000e0 ff fa 29 bb db 35 9b 3c c0 71 cb bc f6 f5 07 bc
       -0.002593696 0.018946579 -0.024834514 -0.008298388
0000f0 dc d1 de 3c 72 89 78 bd 48 c2 0c bd 0e 16 54 bd
       0.027199678 -0.060677953 -0.03436497 -0.051778845
000100 d2 3d 56 bd 06 56 9f 3d 7d bd 9d 3d cc 5d 96 3d
       -0.05230505 0.077800795 0.07702158 0.07342109
000110 2a a1 55 3d 9e 56 a5 3c 05 bb 8d 3c b3 30 57 3c
       0.05215565 0.020182904 0.017301092 0.013134169
000120 5a 89 af 3d 9d 20 9c 3d e6 54 f4 bb 2f ff 8b bd
       0.085711196 0.07623408 -0.0074564097 -0.06835782
000130 b4 52 0e 3d 37 02 27 3d 6e aa 94 bb bd b9 80 3d
       0.03474684 0.040773597 -0.0045369184 0.06285427
000140 12 a4 24 3d 22 ae 68 bd 52 2f af 3d a8 7c 92 bd
       0.040195532 -0.05680669 0.085539475 -0.071526825
000150 a2 06 d2 3b fe 69 7a bd 8e 51 45 3d cc f8 fb bc
       0.006409482 -0.06113624 0.04817348 -0.030758284
000160 e1 d4 c2 3c 5d 71 30 bc 3a 22 35 bd b2 f9 85 3d
       0.02378315 -0.010769215 -0.044222094 0.06541766
000170 60 50 5b bd be c4 90 3d b1 33 96 bd 89 67 a7 bd
       -0.05354345 0.070687756 -0.07334078 -0.08174045
000180 af 77 a1 bd 2f ee e3 3c 3e 99 8f bb 03 f5 ca bc
       -0.07884156 0.027823536 -0.0043822816 -0.024775034
000190 81 e9 49 3c a8 97 88 bd 5d 0e 90 bd 9a 1c 77 3c
       0.012323738 -0.06669551 -0.070339896 0.015082503
0001a0 fa 16 62 bd 19 8c 7a bd ba ab f6 bb c9 a6 1c bd
       -0.055197693 -0.061168764 -0.0075277956 -0.038244996
0001b0 a5 f5 99 bc 8f 10 1e 3d a9 50 66 3d 97 75 aa 3c
       -0.01879389 0.03859001 0.056229267 0.020808024
0001c0 ce e7 4b bd 6e dc 6e 3c 7e 3c 4c 3d 7c 4d 24 bd
       -0.049781613 0.014578922 0.049862377 -0.040112957
0001d0 e7 59 52 3d c1 47 f3 3c 11 e7 a9 bd 7e 83 8c 3c
       0.05135527 0.0296973 -0.082960255 0.017152544
0001e0 b8 73 7d 3c d1 74 63 bd 8b 0a fc bc 09 10 23 3d
       0.015469484 -0.055531327 -0.030766746 0.039810214
0001f0 33 bd f3 3c 21 e8 9b 3d 9a e4 07 bd 2a 3c ae 3d
       0.029753303 0.076126345 -0.033176996 0.08507569
000200 86 02 2e 3d e6 c3 16 3d 9a 3d b2 3a d0 7b 08 bd
       0.042482875 0.036807917 0.0013598681 -0.0333212
000210 3b 3c 9c bd a5 2a 3a 3d 3c 24 77 3d 57 0a c2 3c
       -0.076286756 0.045450825 0.06033729 0.023686571
000220 63 f7 07 3d e2 f4 b1 3d e1 12 92 bd cf 47 6d bd
       0.03319491 0.08689286 -0.07132507 -0.05792981
000230 27 40 2c bc 79 ca 18 3d 89 d4 a0 3d ed 85 b4 3d
       -0.010513342 0.037302468 0.07853038 0.08814607
000240 9a 92 6a 3c ff 76 34 3d 72 18 a2 3d ef 5b 46 3d
       0.014317179 0.044058796 0.07914819 0.04842752
000250 eb 49 b4 bb 56 f7 0c bd 68 3c bf bc c0 58 a8 3d
       -0.005501976 -0.034415565 -0.023344234 0.08220053
000260 d4 92 ac bd b4 bd 5b 3c 3b f9 68 3c 95 44 95 bc
       -0.08426443 0.013411928 0.014219577 -0.018221179
000270 5f 2d 66 bd 24 c0 8c bd 9a 54 e5 ba 10 8a 65 bd
       -0.056195613 -0.068725854 -0.0017496527 -0.05603987
000280 25 9a 14 3d 92 e9 86 bd 01 6e b0 bc 28 5a 3d bc
       0.036279816 -0.06587519 -0.021536829 -0.011557139
000290 f8 20 13 3d 3c cc 84 3d 62 e8 a4 3d 41 3c d3 3b
       0.035920113 0.06484267 0.08052136 0.006446392
0002a0 9a db b3 bd eb b8 c4 bc 0c 93 50 3c 08 bc 01 3d
       -0.0878212 -0.024013957 0.012730371 0.03167346
0002b0 0a f8 9e 3d aa 97 ab bd 2c 4b d7 bc 01 15 69 3d
       0.077621534 -0.08378537 -0.026280962 0.056904797
0002c0 ee 43 45 3d 80 30 05 bd 1a c7 cd 3c 4b 57 6a 3d
       0.048160486 -0.032516956 0.025119353 0.057212155
0002d0 0f f3 22 ba f3 b2 0e bc 5e ca 1b 3c 8a 92 17 bd
       -0.0006216028 -0.008709657 0.009508697 -0.037004985
0002e0 8f e3 b3 bd 9e fa 34 3d f2 8c d5 3c b3 1a 79 bd
       -0.08783638 0.04418432 0.026068185 -0.060816478
0002f0 38 4f 70 3c 56 93 ed bc 3a 88 9f 3d c7 f0 31 bd
       0.014667325 -0.02900092 0.07789655 -0.043442514
000300 66 ce a1 3d 25 d7 16 3d d8 d8 27 3c 8f ca c7 3c
       0.079006955 0.03682627 0.010244571 0.02438858
000310 21 3a 58 3c 7d 0c 47 3d dc 7b 25 bd d6 ef c7 bc
       0.013197453 0.048595894 -0.040401325 -0.024406355
000320 e7 a8 2c bd 0d 77 88 3c 1b 4b 42 bd ab 47 40 3d
       -0.042153265 0.01665833 -0.047434907 0.046943348
000330 5b 10 8e bc 48 63 b0 3d 5f 5e 08 3d 5f 0d a9 bd
       -0.017341783 0.086126864 0.033293124 -0.082545035
000340 9a fc 61 3c fe 65 0c 3d af c6 6a bd e8 a3 54 3c
       0.013793135 0.034276955 -0.057318386 0.012978531
000350 0e 8f fd 3c 84 72 ab bd 42 14 a0 bd 32 01 93 bb
       0.030952003 -0.083714515 -0.07816364 -0.0044862265
000360 c2 38 06 3d bc 58 45 bd 84 d3 41 bd 3f ed 37 bd
       0.032768972 -0.048180327 -0.047320858 -0.04490399
000370 20 74 9f 3c 08 88 02 bd 3a 9b 1d bd a2 1b fa 3b
       0.019464552 -0.03186801 -0.038478114 0.0076326886
000380 35 9f 29 bc 52 00 50 bc 98 f0 65 3d 24 b3 90 bd
       -0.010352899 -0.012695389 0.05613765 -0.07065418
000390 6d 22 18 bc 1c 32 1d bc d2 b6 09 3d b9 13 4c bd
       -0.0092855515 -0.009594467 0.033621617 -0.049823496
0003a0 a7 95 50 3c b5 b6 a8 bd 40 02 90 3d ce 30 88 3c
       0.012730992 -0.082379736 0.07031679 0.016624834
0003b0 3b 4f 37 bc 9c 41 9c bd d1 04 86 3d 8d c2 77 3d
       -0.011188324 -0.076297015 0.065438874 0.060488272
0003c0 55 4b 7c 3d 70 1a 6e bd 12 5e 34 ba 51 aa 5c bd
       0.06159528 -0.05813068 -0.00068804726 -0.053873364
0003d0 fd f6 55 bd 65 58 8a bd 38 f4 65 3d 5d 57 95 bc
       -0.0522375 -0.06755141 0.05614111 -0.018230135
0003e0 90 0f 3a 3d e7 7d 88 bc 14 cd e8 bb 6d 63 59 ba
       0.045424998 -0.016661597 -0.0071045253 -0.00082927087
0003f0 7b 32 8a bd f9 8f a3 bd 82 e2 0f 3d a5 dc 34 bb
       -0.0674791 -0.07986445 0.035128124 -0.0027597335

enc_rnn.bias_ih_l0_reverse f4 [512]
000000 59 ec 9a bf 33 e4 a9 bf c4 91 94 bf f7 e1 9e bf
       -1.2103378 -1.3272766 -1.1606984 -1.2412709
000010 c7 95 95 bf 17 0c a1 bf 65 ff 93 bf df 25 9d bf
       -1.1686333 -1.2581815 -1.1562315 -1.2277182
000020 58 34 a5 bf ef 4e 94 bf f5 07 9a bf f5 a7 9e bf
       -1.2906599 -1.1586589 -1.2033678 -1.2395006
000030 24 6e 98 bf 87 65 a3 bf 0c f6 a8 bf c2 4a e9 bf
       -1.1908612 -1.2765359 -1.3200088 -1.8225939
000040 28 38 9a bf 1c ba 9c bf a7 8c a6 bf 61 55 9d bf
       -1.2048388 -1.2244296 -1.3011674 -1.229168
000050 e5 4c a3 bf b0 96 a1 bf 3b 90 a5 bf bd 9d b9 bf
       -1.2757841 -1.2624111 -1.2934641 -1.4501263
000060 2f 30 9f bf f5 fa 98 bf 96 2f a6 bf 80 aa 0b c0
       -1.243658 -1.1951586 -1.2983272 -2.1822815
000070 46 da 97 bf 67 2b a1 bf 76 51 91 bf 60 fc 09 c0
       -1.1863487 -1.259137 -1.1352985 -2.1560287
000080 af fe d8 bf e0 31 a5 bf 2f 6b aa bf 43 c9 9f bf
       -1.6952723 -1.2905846 -1.331396 -1.2483295
000090 7e 29 aa bf 51 af 9c bf 10 97 a4 bf c4 fa b1 bf
       -1.3293912 -1.2241002 -1.2858601 -1.3904653
0000a0 dd 50 b6 bf 85 6d a8 bf dc 62 9c bf 72 65 9e bf
       -1.4243428 -1.3158423 -1.221767 -1.2374709
0000b0 86 a2 a3 bf 35 3e 9d bf 6a 8e 9d bf e0 7b 9c bf
       -1.2783973 -1.2284609 -1.2309086 -1.2225304
0000c0 8d 0b 8d bf 6b 0d aa bf 6a 3e a2 bf e3 42 d4 bf
       -1.101915 -1.3285345 -1.2675297 -1.6582912
0000d0 6b 5f a3 bf 3b 9d ab bf 4f 29 a1 bf af 3b 99 bf
       -1.2763494 -1.3407358 -1.2590731 -1.1971339
0000e0 b1 d0 a0 bf d0 df 99 bf cf 1a 93 bf ef 8a 9b bf
       -1.2563688 -1.2021427 -1.1492556 -1.2151774
0000f0 af ca a3 bf 39 19 aa bf 82 01 b6 bf 87 81 a0 bf
       -1.2796229 -1.3288947 -1.421921 -1.2539529
000100 4a 99 78 bf bf 62 a5 bf c8 af a0 bf 9b 13 e2 bf
       -0.971089 -1.292076 -1.2553644 -1.7662233
000110 8a 38 a3 bf 7f f2 9e bf b6 55 95 bf a8 b5 ab bf
       -1.2751629 -1.2417754 -1.1666782 -1.3414812
000120 df e6 97 bf 54 d9 9f bf c3 0c b7 bf 33 ca a1 bf
       -1.1867331 -1.2488198 -1.430077 -1.2639831
000130 6d 4e 95 bf 80 12 ed bf fc f1 b2 bf 33 2d 92 bf
       -1.1664559 -1.8521271 -1.3980098 -1.1420044
000140 a6 18 a2 bf b6 d2 98 bf 3e 49 9e bf 72 c7 a0 bf
       -1.2663772 -1.1939304 -1.2366102 -1.2560866
000150 8b ac 99 bf 8c 6c 9c bf 5d 31 a4 bf 93 86 a1 bf
       -1.2005781 -1.2220626 -1.2827564 -1.2619194
000160 79 ef a8 bf b2 d5 a2 bf c9 cb c9 bf c7 e6 9b bf
       -1.3198081 -1.2721465 -1.5765315 -1.2179803
000170 14 93 a7 bf 56 5a a7 bf c3 be b3 bf ef 9c 97 bf
       -1.309176 -1.3074443 -1.4042591 -1.1844767
000180 06 03 a5 bf f5 ae 97 bf 6c 38 9b bf 16 67 bc bf
       -1.2891548 -1.1850268 -1.2126594 -1.4718959
000190 72 bc 9f bf 47 a8 a0 bf 55 96 95 bf 6c 39 9b bf
       -1.2479384 -1.2551354 -1.1686503 -1.2126899
0001a0 ea b0 99 bf 4c b0 d7 bf 6c dd 9c bf 67 bf a4 bf
       -1.2007115 -1.6850677 -1.2255073 -1.2870911
0001b0 11 48 9a bf 07 9f a4 bf 83 0c 97 bf f5 d1 cd bf
       -1.2053243 -1.2861031 -1.1800693 -1.6079699
0001c0 c6 e7 9f bf 21 79 a4 bf 45 fc 9f bf cb 1b 99 bf
       -1.2492607 -1.2849466 -1.2498862 -1.1961607
0001d0 98 37 99 bf 80 06 95 bf 39 7e 99 bf 19 89 9c bf
       -1.1970091 -1.1642609 -1.1991645 -1.2229339
0001e0 ad 4d 02 c0 cd 10 ac bf 1f 6a a4 bf 60 0a 9e bf
       -2.035991 -1.3442627 -1.2844886 -1.2346916
0001f0 14 b5 9b bf f9 bb a1 bf 4f 45 a4 bf ea b6 9a bf
       -1.2164636 -1.263549 -1.2833651 -1.2087071
000200 9f 9e 44 bd 90 3f 00 bd ea ae b3 3d 86 54 91 3d
       -0.048002835 -0.031310618 0.087735966 0.070962
000210 83 30 7f bd 2e 59 a1 3d bf a7 99 3d e4 9c 52 3a
       -0.062302124 0.07878338 0.07502698 0.0008034243
000220 a6 e3 b8 bc ab 74 ad 3d 60 18 a7 3d ce 78 9f bd
       -0.022569489 0.08469518 0.08158946 -0.077867135
000230 1f 81 e6 3b 9d a6 4a bd 12 9a 98 bd 99 89 6c 3d
       0.0070344354 -0.0494753 -0.074512616 0.05774841
000240 09 1d 44 3d 0f 7e 93 bd fe 7e 61 bd 75 4d 49 3d
       0.047879253 -0.07201778 -0.05505275 0.049146134
000250 e5 fd ad 3d 61 94 87 3d 71 f7 fd bc 01 ef 9c bd
       0.08495692 0.06620098 -0.031001778 -0.07662774
000260 50 73 c4 3c 8f 6a 90 bd 67 34 89 3d b1 47 27 bd
       0.023980767 -0.070515744 0.06699448 -0.040839855
000270 ec 56 6f bd 55 a8 07 3d 77 ac 5b bd 29 5d 37 bd
       -0.058432505 0.03311952 -0.053631272 -0.04476658
000280 55 cf ba bc f9 8b 97 3d ae fb a0 3d 86 6b 2d 3c
       -0.022803942 0.073997445 0.07860504 0.010584718
000290 58 9f 3b 3d 13 a5 8d bd 33 59 1d 3d 86 18 6a bd
       0.04580626 -0.06916251 0.038415145 -0.057152294
0002a0 10 b2 89 3d 60 49 65 3d 00 ac 87 bc 3b be 2b 3d
       0.06723416 0.05597818 -0.016561508 0.041929465
0002b0 d1 b4 8d bd bd ec ae 3d d2 68 80 bc 3b 09 32 3c
       -0.069192536 0.08541248 -0.015674982 0.0108664585
0002c0 b2 1a 08 3d f0 88 ac 3d f5 a3 c6 3c 3b 97 b5 3b
       0.033228584 0.08424556 0.024248103 0.0055417097
0002d0 97 5f ab bd 10 d0 a3 bd e3 2e 2d bd d5 8d 3f 3d
       -0.08367842 -0.07998669 -0.042281043 0.04676612
0002e0 84 fd aa 3d bb 66 8d bd 18 d1 91 bc 26 a4 93 3d
       0.083491355 -0.0690436 -0.017799899 0.07209043
0002f0 ca 0a 62 b9 3f 6e eb ba 59 89 a1 bc 33 87 09 bc
       -0.00021557059 -0.0017961933 -0.019718813 -0.00839405
000300 3d 18 b4 bd 6d 3a 5d bd 46 00 2b bc 91 8d a8 3d
       -0.087936856 -0.054010797 -0.010437077 0.08230127
000310 f5 98 8d 3d 99 40 89 3d 55 e8 02 3d a1 08 c8 bc
       0.0691394 0.06701774 0.03195985 -0.024418177
000320 33 99 31 3c e3 70 1d 3d 4a e6 a1 bc bd 84 39 3d
       0.010839748 0.038437735 -0.01976313 0.045292605
000330 f8 4d 76 bd 93 8d a2 bd e1 8d b6 bc 98 44 9f bc
       -0.06013295 -0.079371594 -0.02228445 -0.019441888
000340 65 97 98 bd be 2a c0 3c 5a f7 ad ba 14 24 b1 bd
       -0.07450751 0.023457881 -0.0013272569 -0.086494595
000350 ae cb b0 3d 4c 74 63 3c 7d 40 ea 3c 15 a2 95 3d
       0.08632599 0.013882708 0.028595204 0.07306305
000360 3a 08 cd bc f7 ce 7c 3c e0 0e 1d 3d 2b aa ac 3d
       -0.025028337 0.015430204 0.038344264 0.084308945
000370 94 1b 90 bd 2a 62 68 bd bd 97 01 3d f8 1f e0 3c
       -0.0703651 -0.05673424 0.03163885 0.027358994
000380 d9 f1 53 3d 00 db 60 3c 3c dd 07 bd c8 fa 5f bd
       0.051744316 0.013724089 -0.03316997 -0.054682523
000390 80 6d aa bd 5b a4 ae bd 24 dc ea bb 7b 29 c1 3c
       -0.08321667 -0.08527442 -0.007167356 0.02357935
0003a0 a4 81 9c bb be 15 a0 bc 0b 44 96 3d 60 56 1a bd
       -0.0047761966 -0.019541617 0.07337197 -0.03768003
0003b0 12 f5 6f bd c8 88 89 bd ed e0 07 3d 0c 77 1c 3d
       -0.058583327 -0.06715542 0.03317349 0.03819947
0003c0 a6 52 b8 3c 57 40 e9 3b 3e f2 c7 3c 35 cf 67 3d
       0.022500347 0.0071182656 0.024407502 0.056594092
0003d0 c8 1d b6 3c c7 73 5f 3d e2 74 96 bd ab a6 f2 bc
       0.022230998 0.054553773 -0.073465124 -0.02962049
0003e0 83 3a 98 bc da c7 b0 3c 4d 0e 84 bd 6f 8d f2 bc
       -0.018582588 0.021579672 -0.0644804 -0.029608456
0003f0 cd 62 a2 bd 58 58 4a bc ef fa 46 bd 92 cc 2b 3d
       -0.07929001 -0.012350164 -0.048579153 0.04194314
